train
train
__________________________________________________________________________________________________
Layer (type)                    Output Shape         Param #     Connected to                     
==================================================================================================
input_1 (InputLayer)            (None, 416, 416, 3)  0                                            
__________________________________________________________________________________________________
conv2d_1 (Conv2D)               (None, 416, 416, 32) 864         input_1[0][0]                    
__________________________________________________________________________________________________
batch_normalization_1 (BatchNor (None, 416, 416, 32) 128         conv2d_1[0][0]                   
__________________________________________________________________________________________________
leaky_re_lu_1 (LeakyReLU)       (None, 416, 416, 32) 0           batch_normalization_1[0][0]      
__________________________________________________________________________________________________
max_pooling2d_1 (MaxPooling2D)  (None, 208, 208, 32) 0           leaky_re_lu_1[0][0]              
__________________________________________________________________________________________________
conv2d_2 (Conv2D)               (None, 208, 208, 64) 18432       max_pooling2d_1[0][0]            
__________________________________________________________________________________________________
batch_normalization_2 (BatchNor (None, 208, 208, 64) 256         conv2d_2[0][0]                   
__________________________________________________________________________________________________
leaky_re_lu_2 (LeakyReLU)       (None, 208, 208, 64) 0           batch_normalization_2[0][0]      
__________________________________________________________________________________________________
max_pooling2d_2 (MaxPooling2D)  (None, 104, 104, 64) 0           leaky_re_lu_2[0][0]              
__________________________________________________________________________________________________
conv2d_3 (Conv2D)               (None, 104, 104, 128 73728       max_pooling2d_2[0][0]            
__________________________________________________________________________________________________
batch_normalization_3 (BatchNor (None, 104, 104, 128 512         conv2d_3[0][0]                   
__________________________________________________________________________________________________
leaky_re_lu_3 (LeakyReLU)       (None, 104, 104, 128 0           batch_normalization_3[0][0]      
__________________________________________________________________________________________________
conv2d_4 (Conv2D)               (None, 104, 104, 64) 8192        leaky_re_lu_3[0][0]              
__________________________________________________________________________________________________
batch_normalization_4 (BatchNor (None, 104, 104, 64) 256         conv2d_4[0][0]                   
__________________________________________________________________________________________________
leaky_re_lu_4 (LeakyReLU)       (None, 104, 104, 64) 0           batch_normalization_4[0][0]      
__________________________________________________________________________________________________
conv2d_5 (Conv2D)               (None, 104, 104, 128 73728       leaky_re_lu_4[0][0]              
__________________________________________________________________________________________________
batch_normalization_5 (BatchNor (None, 104, 104, 128 512         conv2d_5[0][0]                   
__________________________________________________________________________________________________
leaky_re_lu_5 (LeakyReLU)       (None, 104, 104, 128 0           batch_normalization_5[0][0]      
__________________________________________________________________________________________________
max_pooling2d_3 (MaxPooling2D)  (None, 52, 52, 128)  0           leaky_re_lu_5[0][0]              
__________________________________________________________________________________________________
conv2d_6 (Conv2D)               (None, 52, 52, 256)  294912      max_pooling2d_3[0][0]            
__________________________________________________________________________________________________
batch_normalization_6 (BatchNor (None, 52, 52, 256)  1024        conv2d_6[0][0]                   
__________________________________________________________________________________________________
leaky_re_lu_6 (LeakyReLU)       (None, 52, 52, 256)  0           batch_normalization_6[0][0]      
__________________________________________________________________________________________________
conv2d_7 (Conv2D)               (None, 52, 52, 128)  32768       leaky_re_lu_6[0][0]              
__________________________________________________________________________________________________
batch_normalization_7 (BatchNor (None, 52, 52, 128)  512         conv2d_7[0][0]                   
__________________________________________________________________________________________________
leaky_re_lu_7 (LeakyReLU)       (None, 52, 52, 128)  0           batch_normalization_7[0][0]      
__________________________________________________________________________________________________
conv2d_8 (Conv2D)               (None, 52, 52, 256)  294912      leaky_re_lu_7[0][0]              
__________________________________________________________________________________________________
batch_normalization_8 (BatchNor (None, 52, 52, 256)  1024        conv2d_8[0][0]                   
__________________________________________________________________________________________________
leaky_re_lu_8 (LeakyReLU)       (None, 52, 52, 256)  0           batch_normalization_8[0][0]      
__________________________________________________________________________________________________
max_pooling2d_4 (MaxPooling2D)  (None, 26, 26, 256)  0           leaky_re_lu_8[0][0]              
__________________________________________________________________________________________________
conv2d_9 (Conv2D)               (None, 26, 26, 512)  1179648     max_pooling2d_4[0][0]            
__________________________________________________________________________________________________
batch_normalization_9 (BatchNor (None, 26, 26, 512)  2048        conv2d_9[0][0]                   
__________________________________________________________________________________________________
leaky_re_lu_9 (LeakyReLU)       (None, 26, 26, 512)  0           batch_normalization_9[0][0]      
__________________________________________________________________________________________________
conv2d_10 (Conv2D)              (None, 26, 26, 256)  131072      leaky_re_lu_9[0][0]              
__________________________________________________________________________________________________
batch_normalization_10 (BatchNo (None, 26, 26, 256)  1024        conv2d_10[0][0]                  
__________________________________________________________________________________________________
leaky_re_lu_10 (LeakyReLU)      (None, 26, 26, 256)  0           batch_normalization_10[0][0]     
__________________________________________________________________________________________________
conv2d_11 (Conv2D)              (None, 26, 26, 512)  1179648     leaky_re_lu_10[0][0]             
__________________________________________________________________________________________________
batch_normalization_11 (BatchNo (None, 26, 26, 512)  2048        conv2d_11[0][0]                  
__________________________________________________________________________________________________
leaky_re_lu_11 (LeakyReLU)      (None, 26, 26, 512)  0           batch_normalization_11[0][0]     
__________________________________________________________________________________________________
conv2d_12 (Conv2D)              (None, 26, 26, 256)  131072      leaky_re_lu_11[0][0]             
__________________________________________________________________________________________________
batch_normalization_12 (BatchNo (None, 26, 26, 256)  1024        conv2d_12[0][0]                  
__________________________________________________________________________________________________
leaky_re_lu_12 (LeakyReLU)      (None, 26, 26, 256)  0           batch_normalization_12[0][0]     
__________________________________________________________________________________________________
conv2d_13 (Conv2D)              (None, 26, 26, 512)  1179648     leaky_re_lu_12[0][0]             
__________________________________________________________________________________________________
batch_normalization_13 (BatchNo (None, 26, 26, 512)  2048        conv2d_13[0][0]                  
__________________________________________________________________________________________________
leaky_re_lu_13 (LeakyReLU)      (None, 26, 26, 512)  0           batch_normalization_13[0][0]     
__________________________________________________________________________________________________
max_pooling2d_5 (MaxPooling2D)  (None, 13, 13, 512)  0           leaky_re_lu_13[0][0]             
__________________________________________________________________________________________________
conv2d_14 (Conv2D)              (None, 13, 13, 1024) 4718592     max_pooling2d_5[0][0]            
__________________________________________________________________________________________________
batch_normalization_14 (BatchNo (None, 13, 13, 1024) 4096        conv2d_14[0][0]                  
__________________________________________________________________________________________________
leaky_re_lu_14 (LeakyReLU)      (None, 13, 13, 1024) 0           batch_normalization_14[0][0]     
__________________________________________________________________________________________________
conv2d_15 (Conv2D)              (None, 13, 13, 512)  524288      leaky_re_lu_14[0][0]             
__________________________________________________________________________________________________
batch_normalization_15 (BatchNo (None, 13, 13, 512)  2048        conv2d_15[0][0]                  
__________________________________________________________________________________________________
leaky_re_lu_15 (LeakyReLU)      (None, 13, 13, 512)  0           batch_normalization_15[0][0]     
__________________________________________________________________________________________________
conv2d_16 (Conv2D)              (None, 13, 13, 1024) 4718592     leaky_re_lu_15[0][0]             
__________________________________________________________________________________________________
batch_normalization_16 (BatchNo (None, 13, 13, 1024) 4096        conv2d_16[0][0]                  
__________________________________________________________________________________________________
leaky_re_lu_16 (LeakyReLU)      (None, 13, 13, 1024) 0           batch_normalization_16[0][0]     
__________________________________________________________________________________________________
conv2d_17 (Conv2D)              (None, 13, 13, 512)  524288      leaky_re_lu_16[0][0]             
__________________________________________________________________________________________________
batch_normalization_17 (BatchNo (None, 13, 13, 512)  2048        conv2d_17[0][0]                  
__________________________________________________________________________________________________
leaky_re_lu_17 (LeakyReLU)      (None, 13, 13, 512)  0           batch_normalization_17[0][0]     
__________________________________________________________________________________________________
conv2d_18 (Conv2D)              (None, 13, 13, 1024) 4718592     leaky_re_lu_17[0][0]             
__________________________________________________________________________________________________
batch_normalization_18 (BatchNo (None, 13, 13, 1024) 4096        conv2d_18[0][0]                  
__________________________________________________________________________________________________
leaky_re_lu_18 (LeakyReLU)      (None, 13, 13, 1024) 0           batch_normalization_18[0][0]     
__________________________________________________________________________________________________
conv2d_19 (Conv2D)              (None, 13, 13, 1024) 9437184     leaky_re_lu_18[0][0]             
__________________________________________________________________________________________________
batch_normalization_19 (BatchNo (None, 13, 13, 1024) 4096        conv2d_19[0][0]                  
__________________________________________________________________________________________________
conv2d_21 (Conv2D)              (None, 26, 26, 64)   32768       leaky_re_lu_13[0][0]             
__________________________________________________________________________________________________
leaky_re_lu_19 (LeakyReLU)      (None, 13, 13, 1024) 0           batch_normalization_19[0][0]     
__________________________________________________________________________________________________
batch_normalization_21 (BatchNo (None, 26, 26, 64)   256         conv2d_21[0][0]                  
__________________________________________________________________________________________________
conv2d_20 (Conv2D)              (None, 13, 13, 1024) 9437184     leaky_re_lu_19[0][0]             
__________________________________________________________________________________________________
leaky_re_lu_21 (LeakyReLU)      (None, 26, 26, 64)   0           batch_normalization_21[0][0]     
__________________________________________________________________________________________________
batch_normalization_20 (BatchNo (None, 13, 13, 1024) 4096        conv2d_20[0][0]                  
__________________________________________________________________________________________________
space_to_depth (Lambda)         (None, 13, 13, 256)  0           leaky_re_lu_21[0][0]             
__________________________________________________________________________________________________
leaky_re_lu_20 (LeakyReLU)      (None, 13, 13, 1024) 0           batch_normalization_20[0][0]     
__________________________________________________________________________________________________
concatenate_1 (Concatenate)     (None, 13, 13, 1280) 0           space_to_depth[0][0]             
                                                                 leaky_re_lu_20[0][0]             
__________________________________________________________________________________________________
conv2d_22 (Conv2D)              (None, 13, 13, 1024) 11796480    concatenate_1[0][0]              
__________________________________________________________________________________________________
batch_normalization_22 (BatchNo (None, 13, 13, 1024) 4096        conv2d_22[0][0]                  
__________________________________________________________________________________________________
leaky_re_lu_22 (LeakyReLU)      (None, 13, 13, 1024) 0           batch_normalization_22[0][0]     
__________________________________________________________________________________________________
conv2d_24 (Conv2D)              (None, 13, 13, 36)   36900       leaky_re_lu_22[0][0]             
__________________________________________________________________________________________________
input_2 (InputLayer)            (None, None, 5)      0                                            
__________________________________________________________________________________________________
input_3 (InputLayer)            (None, 13, 13, 4, 1) 0                                            
__________________________________________________________________________________________________
input_4 (InputLayer)            (None, 13, 13, 4, 5) 0                                            
__________________________________________________________________________________________________
yolo_loss (Lambda)              (None, 1)            0           conv2d_24[0][0]                  
                                                                 input_2[0][0]                    
                                                                 input_3[0][0]                    
                                                                 input_4[0][0]                    
==================================================================================================
…
